…
net: "models/pnet/VGG_VOC2012ext.prototxt"
test_initialization: false
average_loss: 20
iter_size: 8
eval_type: "segmentation"
I0314 15:38:50.893210 29479 solver.cpp:70] Creating training net from net file: models/pnet/VGG_VOC2012ext.prototxt
I0314 15:38:51.462448 29479 net.cpp:42] Initializing net from parameters: 
name: "VGG_VOC2012ext"
state {
  phase: TRAIN
}
layer {
  name: "loaddata"
  type: "HDF5Data"
  top: "data"
  top: "label"
  include {
    phase: TRAIN
  }
  hdf5_data_param {
    source: "/home/valada/datasets/OFFROAD_OWN_MEAN_RSC/aug_deformed_v46.txt"
    batch_size: 1
  }
}
layer {
  name: "conv1_1"
  type: "Convolution"
  bottom: "data"
  top: "conv1_1"
  param {
    lr_mult: 1
    decay_mult: 1
  }
  param {
    lr_mult: 2
    decay_mult: 0
  }
  convolution_param {
    num_output: 64
    pad: 1
    kernel_size: 3
    engine: CAFFE
  }
}
layer {
  name: "relu1_1"
  type: "ReLU"
  bottom: "conv1_1"
  top: "conv1_1"
}
layer {
  name: "conv1_2"
  type: "Convolution"
  bottom: "conv1_1"
  top: "conv1_2"
  param {
    lr_mult: 1
    decay_mult: 1
  }
  param {
    lr_mult: 2
    decay_mult: 0
  }
  convolution_param {
    num_output: 64
    pad: 1
    kernel_size: 3
    engine: CAFFE
  }
}
layer {
  name: "relu1_2"
  type: "ReLU"
  bottom: "conv1_2"
  top: "conv1_2"
}
layer {
  name: "pool1"
  type: "Pooling"
  bottom: "conv1_2"
  top: "pool1"
  pooling_param {
    pool: MAX
    kernel_size: 2
    stride: 2
  }
}
layer {
  name: "conv2_1"
  type: "Convolution"
  bottom: "pool1"
  top: "conv2_1"
  param {
    lr_mult: 1
    decay_mult: 1
  }
  param {
    lr_mult: 2
    decay_mult: 0
  }
  convolution_param {
    num_output: 128
    pad: 1
    kernel_size: 3
    engine: CAFFE
  }
}
layer {
  name: "relu2_1"
  type: "ReLU"
  bottom: "conv2_1"
  top: "conv2_1"
}
layer {
  name: "conv2_2"
  type: "Convolution"
  bottom: "conv2_1"
  top: "conv2_2"
  param {
    lr_mult: 1
    decay_mult: 1
  }
  param {
    lr_mult: 2
    decay_mult: 0
  }
  convolution_param {
    num_output: 128
    pad: 1
    kernel_size: 3
    engine: CAFFE
  }
}
layer {
  name: "relu2_2"
  type: "ReLU"
  bottom: "conv2_2"
  top: "conv2_2"
}
layer {
  name: "pool2"
  type: "Pooling"
  bottom: "conv2_2"
  top: "pool2"
  pooling_param {
    pool: MAX
    kernel_size: 2
    stride: 2
  }
}
layer {
  name: "conv3_1"
  type: "Convolution"
  bottom: "pool2"
  top: "conv3_1"
  param {
    lr_mult: 1
    decay_mult: 1
  }
  param {
    lr_mult: 2
    decay_mult: 0
  }
  convolution_param {
    num_output: 256
    pad: 1
    kernel_size: 3
    engine: CAFFE
  }
}
layer {
  name: "relu3_1"
  type: "ReLU"
  bottom: "conv3_1"
  top: "conv3_1"
}
layer {
  name: "conv3_2"
  type: "Convolution"
  bottom: "conv3_1"
  top: "conv3_2"
  param {
    lr_mult: 1
    decay_mult: 1
  }
  param {
    lr_mult: 2
    decay_mult: 0
  }
  convolution_param {
    num_output: 256
    pad: 1
    kernel_size: 3
    engine: CAFFE
  }
}
layer {
  name: "relu3_2"
  type: "ReLU"
  bottom: "conv3_2"
  top: "conv3_2"
}
layer {
  name: "conv3_3"
  type: "Convolution"
  bottom: "conv3_2"
  top: "conv3_3"
  param {
    lr_mult: 1
    decay_mult: 1
  }
  param {
    lr_mult: 2
    decay_mult: 0
  }
  convolution_param {
    num_output: 256
    pad: 1
    kernel_size: 3
    engine: CAFFE
  }
}
layer {
  name: "relu3_3"
  type: "ReLU"
  bottom: "conv3_3"
  top: "conv3_3"
}
layer {
  name: "pool3"
  type: "Pooling"
  bottom: "conv3_3"
  top: "pool3"
  pooling_param {
    pool: MAX
    kernel_size: 2
    stride: 2
  }
}
layer {
  name: "conv4_1"
  type: "Convolution"
  bottom: "pool3"
  top: "conv4_1"
  param {
    lr_mult: 1
    decay_mult: 1
  }
  param {
    lr_mult: 2
    decay_mult: 0
  }
  convolution_param {
    num_output: 512
    pad: 1
    kernel_size: 3
    engine: CAFFE
  }
}
layer {
  name: "relu4_1"
  type: "ReLU"
  bottom: "conv4_1"
  top: "conv4_1"
}
layer {
  name: "conv4_2"
  type: "Convolution"
  bottom: "conv4_1"
  top: "conv4_2"
  param {
    lr_mult: 1
    decay_mult: 1
  }
  param {
    lr_mult: 2
    decay_mult: 0
  }
  convolution_param {
    num_output: 512
    pad: 1
    kernel_size: 3
    engine: CAFFE
  }
}
layer {
  name: "relu4_2"
  type: "ReLU"
  bottom: "conv4_2"
  top: "conv4_2"
}
layer {
  name: "conv4_3"
  type: "Convolution"
  bottom: "conv4_2"
  top: "conv4_3"
  param {
    lr_mult: 1
    decay_mult: 1
  }
  param {
    lr_mult: 2
    decay_mult: 0
  }
  convolution_param {
    num_output: 512
    pad: 1
    kernel_size: 3
    engine: CAFFE
  }
}
layer {
  name: "relu4_3"
  type: "ReLU"
  bottom: "conv4_3"
  top: "conv4_3"
}
layer {
  name: "pool4"
  type: "Pooling"
  bottom: "conv4_3"
  top: "pool4"
  pooling_param {
    pool: MAX
    kernel_size: 3
    stride: 1
    pad: 1
  }
}
layer {
  name: "conv5_1"
  type: "Convolution"
  bottom: "pool4"
  top: "conv5_1"
  param {
    lr_mult: 1
    decay_mult: 1
  }
  param {
    lr_mult: 2
    decay_mult: 0
  }
  convolution_param {
    num_output: 512
    pad: 2
    kernel_size: 3
    engine: CAFFE
    filter_stride: 2
  }
}
layer {
  name: "relu5_1"
  type: "ReLU"
  bottom: "conv5_1"
  top: "conv5_1"
}
layer {
  name: "conv5_2"
  type: "Convolution"
  bottom: "conv5_1"
  top: "conv5_2"
  param {
    lr_mult: 1
    decay_mult: 1
  }
  param {
    lr_mult: 2
    decay_mult: 0
  }
  convolution_param {
    num_output: 512
    pad: 2
    kernel_size: 3
    engine: CAFFE
    filter_stride: 2
  }
}
layer {
  name: "relu5_2"
  type: "ReLU"
  bottom: "conv5_2"
  top: "conv5_2"
}
layer {
  name: "conv5_3"
  type: "Convolution"
  bottom: "conv5_2"
  top: "conv5_3"
  param {
    lr_mult: 1
    decay_mult: 1
  }
  param {
    lr_mult: 2
    decay_mult: 0
  }
  convolution_param {
    num_output: 512
    pad: 2
    kernel_size: 3
    engine: CAFFE
    filter_stride: 2
  }
}
layer {
  name: "relu5_3"
  type: "ReLU"
  bottom: "conv5_3"
  top: "conv5_3"
}
layer {
  name: "pool5"
  type: "Pooling"
  bottom: "conv5_3"
  top: "pool5"
  pooling_param {
    pool: MAX
    kernel_size: 3
    stride: 1
    pad: 1
  }
}
layer {
  name: "fc6"
  type: "Convolution"
  bottom: "pool5"
  top: "fc6"
  param {
    lr_mult: 1
    decay_mult: 1
  }
  param {
    lr_mult: 2
    decay_mult: 0
  }
  convolution_param {
    num_output: 1024
    pad: 12
    kernel_size: 3
    engine: CAFFE
    filter_stride: 12
  }
}
layer {
  name: "relu6"
  type: "ReLU"
  bottom: "fc6"
  top: "fc6"
}
layer {
  name: "drop6"
  type: "Dropout"
  bottom: "fc6"
  top: "fc6"
  dropout_param {
    dropout_ratio: 0.5
  }
}
layer {
  name: "fc7"
  type: "Convolution"
  bottom: "fc6"
  top: "fc7"
  param {
    lr_mult: 1
    decay_mult: 1
  }
  param {
    lr_mult: 2
    decay_mult: 0
  }
  convolution_param {
    num_output: 1024
    kernel_size: 1
    engine: CAFFE
  }
}
layer {
  name: "relu7"
  type: "ReLU"
  bottom: "fc7"
  top: "fc7"
}
layer {
  name: "drop7"
  type: "Dropout"
  bottom: "fc7"
  top: "fc7"
  dropout_param {
    dropout_ratio: 0.5
  }
}
layer {
  name: "fc7_norm"
  type: "Normalize"
  bottom: "fc7"
  top: "fc7_norm"
  norm_param {
    across_spatial: false
    scale_filler {
      type: "constant"
      value: 10
    }
    channel_shared: false
    fix_scale: false
  }
}
layer {
  name: "pool6_1x1"
  type: "Pooling"
  bottom: "fc7"
  top: "pool6_1x1"
  pooling_param {
    pool: AVE
    bin_size: 1
  }
}
layer {
  name: "pool6_1x1_norm"
  type: "Normalize"
  bottom: "pool6_1x1"
  top: "pool6_1x1_norm"
  norm_param {
    across_spatial: false
    scale_filler {
      type: "constant"
      value: 10
    }
    channel_shared: false
    fix_scale: false
  }
}
layer {
  name: "pool6_1x1_norm_drop"
  type: "Dropout"
  bottom: "pool6_1x1_norm"
  top: "pool6_1x1_norm"
  dropout_param {
    dropout_ratio: 0.3
  }
}
layer {
  name: "fc7_norm_score21"
  type: "Convolution"
  bottom: "fc7_norm"
  top: "fc7_norm_score21"
  param {
    lr_mult: 10
    decay_mult: 1
  }
  param {
    lr_mult: 20
    decay_mult: 0
  }
  convolution_param {
    num_output: 6
    kernel_size: 1
    weight_filler {
      type: "xavier"
    }
    bias_filler {
      type: "constant"
      value: 0
    }
    engine: CAFFE
  }
}
layer {
  name: "pool6_1x1_norm_score21"
  type: "Convolution"
  bottom: "pool6_1x1_norm"
  top: "pool6_1x1_norm_score21"
  param {
    lr_mult: 10
    decay_mult: 1
  }
  param {
    lr_mult: 20
    decay_mult: 0
  }
  convolution_param {
    num_output: 6
    kernel_size: 1
    weight_filler {
      type: "xavier"
    }
    bias_filler {
      type: "constant"
      value: 0
    }
    engine: CAFFE
  }
}
layer {
  name: "pool6_1x1_norm_upscore21"
  type: "UnPooling"
  bottom: "pool6_1x1_norm_score21"
  bottom: "fc7_norm_score21"
  top: "pool6_1x1_norm_upscore21"
  unpooling_param {
    unpool: REP
    out_kernel_size: 0
    out_stride: 0
  }
}
layer {
  name: "score21"
  type: "Eltwise"
  bottom: "pool6_1x1_norm_upscore21"
  bottom: "fc7_norm_score21"
  top: "score21"
  eltwise_param {
    operation: SUM
  }
}
layer {
  name: "upscore21"
  type: "Deconvolution"
  bottom: "score21"
  top: "upscore21"
  param {
    lr_mult: 1
    decay_mult: 1
  }
  param {
    lr_mult: 2
    decay_mult: 0
  }
  convolution_param {
    num_output: 6
    pad: 4
    kernel_size: 16
    group: 6
    stride: 8
    weight_filler {
      type: "bilinear_upsampling"
    }
  }
}
layer {
  name: "score"
  type: "Crop"
  bottom: "upscore21"
  bottom: "data"
  top: "score"
}
layer {
  name: "loss"
  type: "SoftmaxWithLoss"
  bottom: "score"
  bottom: "label"
  top: "loss"
  include {
    phase: TRAIN
  }
  loss_param {
    ignore_label: 255
    normalize: false
  }
}
I0314 15:38:51.462779 29479 layer_factory.hpp:74] Creating layer loaddata
I0314 15:38:51.462806 29479 net.cpp:91] Creating Layer loaddata
I0314 15:38:51.462817 29479 net.cpp:369] loaddata -> data
I0314 15:38:51.462846 29479 net.cpp:369] loaddata -> label
I0314 15:38:51.462862 29479 net.cpp:121] Setting up loaddata
I0314 15:38:51.462869 29479 hdf5_data_layer.cpp:80] Loading list of HDF5 filenames from: /home/valada/datasets/OFFROAD_OWN_MEAN_RSC/aug_deformed_v46.txt
I0314 15:38:52.369917 29479 hdf5_data_layer.cpp:94] Number of HDF5 files: 60
I0314 15:39:09.591245 29479 net.cpp:128] Top shape: 1 3 300 300 (270000)
I0314 15:39:09.591280 29479 net.cpp:128] Top shape: 1 1 300 300 (90000)
I0314 15:39:09.591292 29479 layer_factory.hpp:74] Creating layer data_loaddata_0_split
I0314 15:39:09.591315 29479 net.cpp:91] Creating Layer data_loaddata_0_split
I0314 15:39:09.591323 29479 net.cpp:411] data_loaddata_0_split <- data
I0314 15:39:09.591339 29479 net.cpp:369] data_loaddata_0_split -> data_loaddata_0_split_0
I0314 15:39:09.591354 29479 net.cpp:369] data_loaddata_0_split -> data_loaddata_0_split_1
I0314 15:39:09.591362 29479 net.cpp:121] Setting up data_loaddata_0_split
I0314 15:39:09.591373 29479 net.cpp:128] Top shape: 1 3 300 300 (270000)
I0314 15:39:09.591380 29479 net.cpp:128] Top shape: 1 3 300 300 (270000)
I0314 15:39:09.591387 29479 layer_factory.hpp:74] Creating layer conv1_1
I0314 15:39:09.591401 29479 net.cpp:91] Creating Layer conv1_1
I0314 15:39:09.591408 29479 net.cpp:411] conv1_1 <- data_loaddata_0_split_0
I0314 15:39:09.591414 29479 net.cpp:369] conv1_1 -> conv1_1
I0314 15:39:09.591425 29479 net.cpp:121] Setting up conv1_1
I0314 15:39:09.591521 29479 net.cpp:128] Top shape: 1 64 300 300 (5760000)
I0314 15:39:09.591541 29479 layer_factory.hpp:74] Creating layer relu1_1
I0314 15:39:09.591553 29479 net.cpp:91] Creating Layer relu1_1
I0314 15:39:09.591559 29479 net.cpp:411] relu1_1 <- conv1_1
I0314 15:39:09.591567 29479 net.cpp:358] relu1_1 -> conv1_1 (in-place)
I0314 15:39:09.591573 29479 net.cpp:121] Setting up relu1_1
I0314 15:39:09.591583 29479 net.cpp:128] Top shape: 1 64 300 300 (5760000)
I0314 15:39:09.591589 29479 layer_factory.hpp:74] Creating layer conv1_2
I0314 15:39:09.591598 29479 net.cpp:91] Creating Layer conv1_2
I0314 15:39:09.591603 29479 net.cpp:411] conv1_2 <- conv1_1
I0314 15:39:09.591611 29479 net.cpp:369] conv1_2 -> conv1_2
I0314 15:39:09.591656 29479 net.cpp:121] Setting up conv1_2
I0314 15:39:09.592006 29479 net.cpp:128] Top shape: 1 64 300 300 (5760000)
I0314 15:39:09.592020 29479 layer_factory.hpp:74] Creating layer relu1_2
I0314 15:39:09.592041 29479 net.cpp:91] Creating Layer relu1_2
I0314 15:39:09.592046 29479 net.cpp:411] relu1_2 <- conv1_2
I0314 15:39:09.592052 29479 net.cpp:358] relu1_2 -> conv1_2 (in-place)
I0314 15:39:09.592059 29479 net.cpp:121] Setting up relu1_2
I0314 15:39:09.592067 29479 net.cpp:128] Top shape: 1 64 300 300 (5760000)
I0314 15:39:09.592072 29479 layer_factory.hpp:74] Creating layer pool1
I0314 15:39:09.592083 29479 net.cpp:91] Creating Layer pool1
I0314 15:39:09.592089 29479 net.cpp:411] pool1 <- conv1_2
I0314 15:39:09.592095 29479 net.cpp:369] pool1 -> pool1
I0314 15:39:09.592104 29479 net.cpp:121] Setting up pool1
I0314 15:39:09.592128 29479 net.cpp:128] Top shape: 1 64 150 150 (1440000)
I0314 15:39:09.592134 29479 layer_factory.hpp:74] Creating layer conv2_1
I0314 15:39:09.592144 29479 net.cpp:91] Creating Layer conv2_1
I0314 15:39:09.592149 29479 net.cpp:411] conv2_1 <- pool1
I0314 15:39:09.592154 29479 net.cpp:369] conv2_1 -> conv2_1
I0314 15:39:09.592161 29479 net.cpp:121] Setting up conv2_1
I0314 15:39:09.592375 29479 net.cpp:128] Top shape: 1 128 150 150 (2880000)
I0314 15:39:09.592387 29479 layer_factory.hpp:74] Creating layer relu2_1
I0314 15:39:09.592397 29479 net.cpp:91] Creating Layer relu2_1
I0314 15:39:09.592402 29479 net.cpp:411] relu2_1 <- conv2_1
I0314 15:39:09.592408 29479 net.cpp:358] relu2_1 -> conv2_1 (in-place)
I0314 15:39:09.592416 29479 net.cpp:121] Setting up relu2_1
I0314 15:39:09.592422 29479 net.cpp:128] Top shape: 1 128 150 150 (2880000)
I0314 15:39:09.592428 29479 layer_factory.hpp:74] Creating layer conv2_2
I0314 15:39:09.592437 29479 net.cpp:91] Creating Layer conv2_2
I0314 15:39:09.592440 29479 net.cpp:411] conv2_2 <- conv2_1
I0314 15:39:09.592447 29479 net.cpp:369] conv2_2 -> conv2_2
I0314 15:39:09.592455 29479 net.cpp:121] Setting up conv2_2
I0314 15:39:09.592913 29479 net.cpp:128] Top shape: 1 128 150 150 (2880000)
I0314 15:39:09.592927 29479 layer_factory.hpp:74] Creating layer relu2_2
I0314 15:39:09.592936 29479 net.cpp:91] Creating Layer relu2_2
I0314 15:39:09.592941 29479 net.cpp:411] relu2_2 <- conv2_2
I0314 15:39:09.592959 29479 net.cpp:358] relu2_2 -> conv2_2 (in-place)
I0314 15:39:09.592967 29479 net.cpp:121] Setting up relu2_2
I0314 15:39:09.592973 29479 net.cpp:128] Top shape: 1 128 150 150 (2880000)
I0314 15:39:09.592979 29479 layer_factory.hpp:74] Creating layer pool2
I0314 15:39:09.592985 29479 net.cpp:91] Creating Layer pool2
I0314 15:39:09.592989 29479 net.cpp:411] pool2 <- conv2_2
I0314 15:39:09.592995 29479 net.cpp:369] pool2 -> pool2
I0314 15:39:09.593001 29479 net.cpp:121] Setting up pool2
I0314 15:39:09.593009 29479 net.cpp:128] Top shape: 1 128 75 75 (720000)
I0314 15:39:09.593014 29479 layer_factory.hpp:74] Creating layer conv3_1
I0314 15:39:09.593020 29479 net.cpp:91] Creating Layer conv3_1
I0314 15:39:09.593025 29479 net.cpp:411] conv3_1 <- pool2
I0314 15:39:09.593031 29479 net.cpp:369] conv3_1 -> conv3_1
I0314 15:39:09.593039 29479 net.cpp:121] Setting up conv3_1
I0314 15:39:09.593762 29479 net.cpp:128] Top shape: 1 256 75 75 (1440000)
I0314 15:39:09.593775 29479 layer_factory.hpp:74] Creating layer relu3_1
I0314 15:39:09.593783 29479 net.cpp:91] Creating Layer relu3_1
I0314 15:39:09.593789 29479 net.cpp:411] relu3_1 <- conv3_1
I0314 15:39:09.593796 29479 net.cpp:358] relu3_1 -> conv3_1 (in-place)
I0314 15:39:09.593802 29479 net.cpp:121] Setting up relu3_1
I0314 15:39:09.593808 29479 net.cpp:128] Top shape: 1 256 75 75 (1440000)
I0314 15:39:09.593816 29479 layer_factory.hpp:74] Creating layer conv3_2
I0314 15:39:09.593824 29479 net.cpp:91] Creating Layer conv3_2
I0314 15:39:09.593829 29479 net.cpp:411] conv3_2 <- conv3_1
I0314 15:39:09.593835 29479 net.cpp:369] conv3_2 -> conv3_2
I0314 15:39:09.593843 29479 net.cpp:121] Setting up conv3_2
I0314 15:39:09.595232 29479 net.cpp:128] Top shape: 1 256 75 75 (1440000)
I0314 15:39:09.595244 29479 layer_factory.hpp:74] Creating layer relu3_2
I0314 15:39:09.595264 29479 net.cpp:91] Creating Layer relu3_2
I0314 15:39:09.595270 29479 net.cpp:411] relu3_2 <- conv3_2
I0314 15:39:09.595276 29479 net.cpp:358] relu3_2 -> conv3_2 (in-place)
I0314 15:39:09.595283 29479 net.cpp:121] Setting up relu3_2
I0314 15:39:09.595290 29479 net.cpp:128] Top shape: 1 256 75 75 (1440000)
I0314 15:39:09.595295 29479 layer_factory.hpp:74] Creating layer conv3_3
I0314 15:39:09.595306 29479 net.cpp:91] Creating Layer conv3_3
I0314 15:39:09.595310 29479 net.cpp:411] conv3_3 <- conv3_2
I0314 15:39:09.595316 29479 net.cpp:369] conv3_3 -> conv3_3
I0314 15:39:09.595324 29479 net.cpp:121] Setting up conv3_3
I0314 15:39:09.596560 29479 net.cpp:128] Top shape: 1 256 75 75 (1440000)
I0314 15:39:09.596582 29479 layer_factory.hpp:74] Creating layer relu3_3
I0314 15:39:09.596588 29479 net.cpp:91] Creating Layer relu3_3
I0314 15:39:09.596593 29479 net.cpp:411] relu3_3 <- conv3_3
I0314 15:39:09.596598 29479 net.cpp:358] relu3_3 -> conv3_3 (in-place)
I0314 15:39:09.596604 29479 net.cpp:121] Setting up relu3_3
I0314 15:39:09.596609 29479 net.cpp:128] Top shape: 1 256 75 75 (1440000)
I0314 15:39:09.596616 29479 layer_factory.hpp:74] Creating layer pool3
I0314 15:39:09.596623 29479 net.cpp:91] Creating Layer pool3
I0314 15:39:09.596627 29479 net.cpp:411] pool3 <- conv3_3
I0314 15:39:09.596633 29479 net.cpp:369] pool3 -> pool3
I0314 15:39:09.596640 29479 net.cpp:121] Setting up pool3
I0314 15:39:09.596649 29479 net.cpp:128] Top shape: 1 256 38 38 (369664)
I0314 15:39:09.596667 29479 layer_factory.hpp:74] Creating layer conv4_1
I0314 15:39:09.596674 29479 net.cpp:91] Creating Layer conv4_1
I0314 15:39:09.596680 29479 net.cpp:411] conv4_1 <- pool3
I0314 15:39:09.596689 29479 net.cpp:369] conv4_1 -> conv4_1
I0314 15:39:09.596698 29479 net.cpp:121] Setting up conv4_1
I0314 15:39:09.598953 29479 net.cpp:128] Top shape: 1 512 38 38 (739328)
I0314 15:39:09.598965 29479 layer_factory.hpp:74] Creating layer relu4_1
I0314 15:39:09.598984 29479 net.cpp:91] Creating Layer relu4_1
I0314 15:39:09.598990 29479 net.cpp:411] relu4_1 <- conv4_1
I0314 15:39:09.599000 29479 net.cpp:358] relu4_1 -> conv4_1 (in-place)
I0314 15:39:09.599006 29479 net.cpp:121] Setting up relu4_1
I0314 15:39:09.599012 29479 net.cpp:128] Top shape: 1 512 38 38 (739328)
I0314 15:39:09.599015 29479 layer_factory.hpp:74] Creating layer conv4_2
I0314 15:39:09.599023 29479 net.cpp:91] Creating Layer conv4_2
I0314 15:39:09.599027 29479 net.cpp:411] conv4_2 <- conv4_1
I0314 15:39:09.599033 29479 net.cpp:369] conv4_2 -> conv4_2
I0314 15:39:09.599041 29479 net.cpp:121] Setting up conv4_2
I0314 15:39:09.603235 29479 net.cpp:128] Top shape: 1 512 38 38 (739328)
I0314 15:39:09.603263 29479 layer_factory.hpp:74] Creating layer relu4_2
I0314 15:39:09.603271 29479 net.cpp:91] Creating Layer relu4_2
I0314 15:39:09.603274 29479 net.cpp:411] relu4_2 <- conv4_2
I0314 15:39:09.603283 29479 net.cpp:358] relu4_2 -> conv4_2 (in-place)
I0314 15:39:09.603289 29479 net.cpp:121] Setting up relu4_2
I0314 15:39:09.603294 29479 net.cpp:128] Top shape: 1 512 38 38 (739328)
I0314 15:39:09.603299 29479 layer_factory.hpp:74] Creating layer conv4_3
I0314 15:39:09.603305 29479 net.cpp:91] Creating Layer conv4_3
I0314 15:39:09.603320 29479 net.cpp:411] conv4_3 <- conv4_2
I0314 15:39:09.603327 29479 net.cpp:369] conv4_3 -> conv4_3
I0314 15:39:09.603334 29479 net.cpp:121] Setting up conv4_3
I0314 15:39:09.608393 29479 net.cpp:128] Top shape: 1 512 38 38 (739328)
I0314 15:39:09.608420 29479 layer_factory.hpp:74] Creating layer relu4_3
I0314 15:39:09.608428 29479 net.cpp:91] Creating Layer relu4_3
I0314 15:39:09.608431 29479 net.cpp:411] relu4_3 <- conv4_3
I0314 15:39:09.608436 29479 net.cpp:358] relu4_3 -> conv4_3 (in-place)
I0314 15:39:09.608443 29479 net.cpp:121] Setting up relu4_3
I0314 15:39:09.608446 29479 net.cpp:128] Top shape: 1 512 38 38 (739328)
I0314 15:39:09.608450 29479 layer_factory.hpp:74] Creating layer pool4
I0314 15:39:09.608459 29479 net.cpp:91] Creating Layer pool4
I0314 15:39:09.608464 29479 net.cpp:411] pool4 <- conv4_3
I0314 15:39:09.608510 29479 net.cpp:369] pool4 -> pool4
I0314 15:39:09.608516 29479 net.cpp:121] Setting up pool4
I0314 15:39:09.608528 29479 net.cpp:128] Top shape: 1 512 38 38 (739328)
I0314 15:39:09.608533 29479 layer_factory.hpp:74] Creating layer conv5_1
I0314 15:39:09.608544 29479 net.cpp:91] Creating Layer conv5_1
I0314 15:39:09.608551 29479 net.cpp:411] conv5_1 <- pool4
I0314 15:39:09.608556 29479 net.cpp:369] conv5_1 -> conv5_1
I0314 15:39:09.608564 29479 net.cpp:121] Setting up conv5_1
I0314 15:39:09.614002 29479 net.cpp:128] Top shape: 1 512 38 38 (739328)
I0314 15:39:09.614029 29479 layer_factory.hpp:74] Creating layer relu5_1
I0314 15:39:09.614037 29479 net.cpp:91] Creating Layer relu5_1
I0314 15:39:09.614040 29479 net.cpp:411] relu5_1 <- conv5_1
I0314 15:39:09.614047 29479 net.cpp:358] relu5_1 -> conv5_1 (in-place)
I0314 15:39:09.614051 29479 net.cpp:121] Setting up relu5_1
I0314 15:39:09.614056 29479 net.cpp:128] Top shape: 1 512 38 38 (739328)
I0314 15:39:09.614065 29479 layer_factory.hpp:74] Creating layer conv5_2
I0314 15:39:09.614073 29479 net.cpp:91] Creating Layer conv5_2
I0314 15:39:09.614078 29479 net.cpp:411] conv5_2 <- conv5_1
I0314 15:39:09.614099 29479 net.cpp:369] conv5_2 -> conv5_2
I0314 15:39:09.614105 29479 net.cpp:121] Setting up conv5_2
I0314 15:39:09.619421 29479 net.cpp:128] Top shape: 1 512 38 38 (739328)
I0314 15:39:09.619434 29479 layer_factory.hpp:74] Creating layer relu5_2
I0314 15:39:09.619441 29479 net.cpp:91] Creating Layer relu5_2
I0314 15:39:09.619446 29479 net.cpp:411] relu5_2 <- conv5_2
I0314 15:39:09.619451 29479 net.cpp:358] relu5_2 -> conv5_2 (in-place)
I0314 15:39:09.619457 29479 net.cpp:121] Setting up relu5_2
I0314 15:39:09.619462 29479 net.cpp:128] Top shape: 1 512 38 38 (739328)
I0314 15:39:09.619464 29479 layer_factory.hpp:74] Creating layer conv5_3
I0314 15:39:09.619484 29479 net.cpp:91] Creating Layer conv5_3
I0314 15:39:09.619488 29479 net.cpp:411] conv5_3 <- conv5_2
I0314 15:39:09.619498 29479 net.cpp:369] conv5_3 -> conv5_3
I0314 15:39:09.619503 29479 net.cpp:121] Setting up conv5_3
I0314 15:39:09.623842 29479 net.cpp:128] Top shape: 1 512 38 38 (739328)
I0314 15:39:09.623867 29479 layer_factory.hpp:74] Creating layer relu5_3
I0314 15:39:09.623873 29479 net.cpp:91] Creating Layer relu5_3
I0314 15:39:09.623878 29479 net.cpp:411] relu5_3 <- conv5_3
I0314 15:39:09.623885 29479 net.cpp:358] relu5_3 -> conv5_3 (in-place)
I0314 15:39:09.623890 29479 net.cpp:121] Setting up relu5_3
I0314 15:39:09.623895 29479 net.cpp:128] Top shape: 1 512 38 38 (739328)
I0314 15:39:09.623901 29479 layer_factory.hpp:74] Creating layer pool5
I0314 15:39:09.623915 29479 net.cpp:91] Creating Layer pool5
I0314 15:39:09.623931 29479 net.cpp:411] pool5 <- conv5_3
I0314 15:39:09.623940 29479 net.cpp:369] pool5 -> pool5
I0314 15:39:09.623947 29479 net.cpp:121] Setting up pool5
I0314 15:39:09.623956 29479 net.cpp:128] Top shape: 1 512 38 38 (739328)
I0314 15:39:09.623965 29479 layer_factory.hpp:74] Creating layer fc6
I0314 15:39:09.623971 29479 net.cpp:91] Creating Layer fc6
I0314 15:39:09.623977 29479 net.cpp:411] fc6 <- pool5
I0314 15:39:09.623983 29479 net.cpp:369] fc6 -> fc6
I0314 15:39:09.623991 29479 net.cpp:121] Setting up fc6
I0314 15:39:09.634047 29479 net.cpp:128] Top shape: 1 1024 38 38 (1478656)
I0314 15:39:09.634086 29479 layer_factory.hpp:74] Creating layer relu6
I0314 15:39:09.634098 29479 net.cpp:91] Creating Layer relu6
I0314 15:39:09.634104 29479 net.cpp:411] relu6 <- fc6
I0314 15:39:09.634110 29479 net.cpp:358] relu6 -> fc6 (in-place)
I0314 15:39:09.634119 29479 net.cpp:121] Setting up relu6
I0314 15:39:09.634124 29479 net.cpp:128] Top shape: 1 1024 38 38 (1478656)
I0314 15:39:09.634131 29479 layer_factory.hpp:74] Creating layer drop6
I0314 15:39:09.634160 29479 net.cpp:91] Creating Layer drop6
I0314 15:39:09.634163 29479 net.cpp:411] drop6 <- fc6
I0314 15:39:09.634168 29479 net.cpp:358] drop6 -> fc6 (in-place)
I0314 15:39:09.634178 29479 net.cpp:121] Setting up drop6
I0314 15:39:09.634189 29479 net.cpp:128] Top shape: 1 1024 38 38 (1478656)
I0314 15:39:09.634193 29479 layer_factory.hpp:74] Creating layer fc7
I0314 15:39:09.634253 29479 net.cpp:91] Creating Layer fc7
I0314 15:39:09.634259 29479 net.cpp:411] fc7 <- fc6
I0314 15:39:09.634265 29479 net.cpp:369] fc7 -> fc7
I0314 15:39:09.634274 29479 net.cpp:121] Setting up fc7
I0314 15:39:09.636848 29479 net.cpp:128] Top shape: 1 1024 38 38 (1478656)
I0314 15:39:09.636875 29479 layer_factory.hpp:74] Creating layer relu7
I0314 15:39:09.636884 29479 net.cpp:91] Creating Layer relu7
I0314 15:39:09.636889 29479 net.cpp:411] relu7 <- fc7
I0314 15:39:09.636895 29479 net.cpp:358] relu7 -> fc7 (in-place)
I0314 15:39:09.636900 29479 net.cpp:121] Setting up relu7
I0314 15:39:09.636907 29479 net.cpp:128] Top shape: 1 1024 38 38 (1478656)
I0314 15:39:09.636911 29479 layer_factory.hpp:74] Creating layer drop7
I0314 15:39:09.636917 29479 net.cpp:91] Creating Layer drop7
I0314 15:39:09.636921 29479 net.cpp:411] drop7 <- fc7
I0314 15:39:09.636940 29479 net.cpp:358] drop7 -> fc7 (in-place)
I0314 15:39:09.636945 29479 net.cpp:121] Setting up drop7
I0314 15:39:09.636951 29479 net.cpp:128] Top shape: 1 1024 38 38 (1478656)
I0314 15:39:09.636955 29479 layer_factory.hpp:74] Creating layer fc7_drop7_0_split
I0314 15:39:09.636962 29479 net.cpp:91] Creating Layer fc7_drop7_0_split
I0314 15:39:09.636965 29479 net.cpp:411] fc7_drop7_0_split <- fc7
I0314 15:39:09.636975 29479 net.cpp:369] fc7_drop7_0_split -> fc7_drop7_0_split_0
I0314 15:39:09.636984 29479 net.cpp:369] fc7_drop7_0_split -> fc7_drop7_0_split_1
I0314 15:39:09.636992 29479 net.cpp:121] Setting up fc7_drop7_0_split
I0314 15:39:09.637001 29479 net.cpp:128] Top shape: 1 1024 38 38 (1478656)
I0314 15:39:09.637007 29479 net.cpp:128] Top shape: 1 1024 38 38 (1478656)
I0314 15:39:09.637012 29479 layer_factory.hpp:74] Creating layer fc7_norm
I0314 15:39:09.637024 29479 net.cpp:91] Creating Layer fc7_norm
I0314 15:39:09.637032 29479 net.cpp:411] fc7_norm <- fc7_drop7_0_split_0
I0314 15:39:09.637048 29479 net.cpp:369] fc7_norm -> fc7_norm
I0314 15:39:09.637058 29479 net.cpp:121] Setting up fc7_norm
I0314 15:39:09.637084 29479 net.cpp:128] Top shape: 1 1024 38 38 (1478656)
I0314 15:39:09.637092 29479 layer_factory.hpp:74] Creating layer pool6_1x1
I0314 15:39:09.637104 29479 net.cpp:91] Creating Layer pool6_1x1
I0314 15:39:09.637109 29479 net.cpp:411] pool6_1x1 <- fc7_drop7_0_split_1
I0314 15:39:09.637115 29479 net.cpp:369] pool6_1x1 -> pool6_1x1
I0314 15:39:09.637122 29479 net.cpp:121] Setting up pool6_1x1
I0314 15:39:09.637140 29479 net.cpp:128] Top shape: 1 1024 1 1 (1024)
I0314 15:39:09.637147 29479 layer_factory.hpp:74] Creating layer pool6_1x1_norm
I0314 15:39:09.637158 29479 net.cpp:91] Creating Layer pool6_1x1_norm
I0314 15:39:09.637163 29479 net.cpp:411] pool6_1x1_norm <- pool6_1x1
I0314 15:39:09.637171 29479 net.cpp:369] pool6_1x1_norm -> pool6_1x1_norm
I0314 15:39:09.637177 29479 net.cpp:121] Setting up pool6_1x1_norm
I0314 15:39:09.637195 29479 net.cpp:128] Top shape: 1 1024 1 1 (1024)
I0314 15:39:09.637202 29479 layer_factory.hpp:74] Creating layer pool6_1x1_norm_drop
I0314 15:39:09.637212 29479 net.cpp:91] Creating Layer pool6_1x1_norm_drop
I0314 15:39:09.637217 29479 net.cpp:411] pool6_1x1_norm_drop <- pool6_1x1_norm
I0314 15:39:09.637225 29479 net.cpp:358] pool6_1x1_norm_drop -> pool6_1x1_norm (in-place)
I0314 15:39:09.637233 29479 net.cpp:121] Setting up pool6_1x1_norm_drop
I0314 15:39:09.637239 29479 net.cpp:128] Top shape: 1 1024 1 1 (1024)
I0314 15:39:09.637245 29479 layer_factory.hpp:74] Creating layer fc7_norm_score21
I0314 15:39:09.637253 29479 net.cpp:91] Creating Layer fc7_norm_score21
I0314 15:39:09.637259 29479 net.cpp:411] fc7_norm_score21 <- fc7_norm
I0314 15:39:09.637267 29479 net.cpp:369] fc7_norm_score21 -> fc7_norm_score21
I0314 15:39:09.637275 29479 net.cpp:121] Setting up fc7_norm_score21
I0314 15:39:09.637778 29479 net.cpp:128] Top shape: 1 6 38 38 (8664)
I0314 15:39:09.637797 29479 layer_factory.hpp:74] Creating layer fc7_norm_score21_fc7_norm_score21_0_split
I0314 15:39:09.637806 29479 net.cpp:91] Creating Layer fc7_norm_score21_fc7_norm_score21_0_split
I0314 15:39:09.637814 29479 net.cpp:411] fc7_norm_score21_fc7_norm_score21_0_split <- fc7_norm_score21
I0314 15:39:09.637835 29479 net.cpp:369] fc7_norm_score21_fc7_norm_score21_0_split -> fc7_norm_score21_fc7_norm_score21_0_split_0
I0314 15:39:09.637845 29479 net.cpp:369] fc7_norm_score21_fc7_norm_score21_0_split -> fc7_norm_score21_fc7_norm_score21_0_split_1
I0314 15:39:09.637852 29479 net.cpp:121] Setting up fc7_norm_score21_fc7_norm_score21_0_split
I0314 15:39:09.637861 29479 net.cpp:128] Top shape: 1 6 38 38 (8664)
I0314 15:39:09.637866 29479 net.cpp:128] Top shape: 1 6 38 38 (8664)
I0314 15:39:09.637871 29479 layer_factory.hpp:74] Creating layer pool6_1x1_norm_score21
I0314 15:39:09.637881 29479 net.cpp:91] Creating Layer pool6_1x1_norm_score21
I0314 15:39:09.637887 29479 net.cpp:411] pool6_1x1_norm_score21 <- pool6_1x1_norm
I0314 15:39:09.637895 29479 net.cpp:369] pool6_1x1_norm_score21 -> pool6_1x1_norm_score21
I0314 15:39:09.637907 29479 net.cpp:121] Setting up pool6_1x1_norm_score21
I0314 15:39:09.637981 29479 net.cpp:128] Top shape: 1 6 1 1 (6)
I0314 15:39:09.637991 29479 layer_factory.hpp:74] Creating layer pool6_1x1_norm_upscore21
I0314 15:39:09.638003 29479 net.cpp:91] Creating Layer pool6_1x1_norm_upscore21
I0314 15:39:09.638008 29479 net.cpp:411] pool6_1x1_norm_upscore21 <- pool6_1x1_norm_score21
I0314 15:39:09.638015 29479 net.cpp:411] pool6_1x1_norm_upscore21 <- fc7_norm_score21_fc7_norm_score21_0_split_0
I0314 15:39:09.638021 29479 net.cpp:369] pool6_1x1_norm_upscore21 -> pool6_1x1_norm_upscore21
I0314 15:39:09.638031 29479 net.cpp:121] Setting up pool6_1x1_norm_upscore21
I0314 15:39:09.638056 29479 net.cpp:128] Top shape: 1 6 38 38 (8664)
I0314 15:39:09.638062 29479 layer_factory.hpp:74] Creating layer score21
I0314 15:39:09.638072 29479 net.cpp:91] Creating Layer score21
I0314 15:39:09.638077 29479 net.cpp:411] score21 <- pool6_1x1_norm_upscore21
I0314 15:39:09.638082 29479 net.cpp:411] score21 <- fc7_norm_score21_fc7_norm_score21_0_split_1
I0314 15:39:09.638088 29479 net.cpp:369] score21 -> score21
I0314 15:39:09.638098 29479 net.cpp:121] Setting up score21
I0314 15:39:09.638109 29479 net.cpp:128] Top shape: 1 6 38 38 (8664)
I0314 15:39:09.638114 29479 layer_factory.hpp:74] Creating layer upscore21
I0314 15:39:09.638128 29479 net.cpp:91] Creating Layer upscore21
I0314 15:39:09.638133 29479 net.cpp:411] upscore21 <- score21
I0314 15:39:09.638139 29479 net.cpp:369] upscore21 -> upscore21
I0314 15:39:09.638146 29479 net.cpp:121] Setting up upscore21
I0314 15:39:09.638444 29479 net.cpp:128] Top shape: 1 6 304 304 (554496)
I0314 15:39:09.638456 29479 layer_factory.hpp:74] Creating layer score
I0314 15:39:09.638468 29479 net.cpp:91] Creating Layer score
I0314 15:39:09.638474 29479 net.cpp:411] score <- upscore21
I0314 15:39:09.638479 29479 net.cpp:411] score <- data_loaddata_0_split_1
I0314 15:39:09.638486 29479 net.cpp:369] score -> score
I0314 15:39:09.638494 29479 net.cpp:121] Setting up score
I0314 15:39:09.638577 29479 net.cpp:128] Top shape: 1 6 300 300 (540000)
I0314 15:39:09.638584 29479 layer_factory.hpp:74] Creating layer loss
I0314 15:39:09.638597 29479 net.cpp:91] Creating Layer loss
I0314 15:39:09.638602 29479 net.cpp:411] loss <- score
I0314 15:39:09.638607 29479 net.cpp:411] loss <- label
I0314 15:39:09.638615 29479 net.cpp:369] loss -> loss
I0314 15:39:09.638628 29479 net.cpp:121] Setting up loss
I0314 15:39:09.638643 29479 layer_factory.hpp:74] Creating layer loss
…
