…
net: "models/pnet/VGG_VOC2012ext.prototxt"
test_initialization: false
average_loss: 20
iter_size: 8
eval_type: "segmentation"
I0318 17:17:17.177700 25527 solver.cpp:70] Creating training net from net file: models/pnet/VGG_VOC2012ext.prototxt
I0318 17:17:17.194494 25527 net.cpp:42] Initializing net from parameters: 
name: "VGG_VOC2012ext"
state {
  phase: TRAIN
}
layer {
  name: "loaddata"
  type: "HDF5Data"
  top: "data"
  top: "label"
  include {
    phase: TRAIN
  }
  hdf5_data_param {
    source: "/home/valada/datasets/OFFROAD_OWN_MEAN_RSC/aug_deformed_v46.txt"
    batch_size: 1
  }
}
layer {
  name: "conv1_1"
  type: "Convolution"
  bottom: "data"
  top: "conv1_1"
  param {
    lr_mult: 1
    decay_mult: 1
  }
  param {
    lr_mult: 2
    decay_mult: 0
  }
  convolution_param {
    num_output: 64
    pad: 1
    kernel_size: 3
    engine: CAFFE
  }
}
layer {
  name: "relu1_1"
  type: "ReLU"
  bottom: "conv1_1"
  top: "conv1_1"
}
layer {
  name: "conv1_2"
  type: "Convolution"
  bottom: "conv1_1"
  top: "conv1_2"
  param {
    lr_mult: 1
    decay_mult: 1
  }
  param {
    lr_mult: 2
    decay_mult: 0
  }
  convolution_param {
    num_output: 64
    pad: 1
    kernel_size: 3
    engine: CAFFE
  }
}
layer {
  name: "relu1_2"
  type: "ReLU"
  bottom: "conv1_2"
  top: "conv1_2"
}
layer {
  name: "pool1"
  type: "Pooling"
  bottom: "conv1_2"
  top: "pool1"
  pooling_param {
    pool: MAX
    kernel_size: 2
    stride: 2
  }
}
layer {
  name: "conv2_1"
  type: "Convolution"
  bottom: "pool1"
  top: "conv2_1"
  param {
    lr_mult: 1
    decay_mult: 1
  }
  param {
    lr_mult: 2
    decay_mult: 0
  }
  convolution_param {
    num_output: 128
    pad: 1
    kernel_size: 3
    engine: CAFFE
  }
}
layer {
  name: "relu2_1"
  type: "ReLU"
  bottom: "conv2_1"
  top: "conv2_1"
}
layer {
  name: "conv2_2"
  type: "Convolution"
  bottom: "conv2_1"
  top: "conv2_2"
  param {
    lr_mult: 1
    decay_mult: 1
  }
  param {
    lr_mult: 2
    decay_mult: 0
  }
  convolution_param {
    num_output: 128
    pad: 1
    kernel_size: 3
    engine: CAFFE
  }
}
layer {
  name: "relu2_2"
  type: "ReLU"
  bottom: "conv2_2"
  top: "conv2_2"
}
layer {
  name: "pool2"
  type: "Pooling"
  bottom: "conv2_2"
  top: "pool2"
  pooling_param {
    pool: MAX
    kernel_size: 2
    stride: 2
  }
}
layer {
  name: "conv3_1"
  type: "Convolution"
  bottom: "pool2"
  top: "conv3_1"
  param {
    lr_mult: 1
    decay_mult: 1
  }
  param {
    lr_mult: 2
    decay_mult: 0
  }
  convolution_param {
    num_output: 256
    pad: 1
    kernel_size: 3
    engine: CAFFE
  }
}
layer {
  name: "relu3_1"
  type: "ReLU"
  bottom: "conv3_1"
  top: "conv3_1"
}
layer {
  name: "conv3_2"
  type: "Convolution"
  bottom: "conv3_1"
  top: "conv3_2"
  param {
    lr_mult: 1
    decay_mult: 1
  }
  param {
    lr_mult: 2
    decay_mult: 0
  }
  convolution_param {
    num_output: 256
    pad: 1
    kernel_size: 3
    engine: CAFFE
  }
}
layer {
  name: "relu3_2"
  type: "ReLU"
  bottom: "conv3_2"
  top: "conv3_2"
}
layer {
  name: "conv3_3"
  type: "Convolution"
  bottom: "conv3_2"
  top: "conv3_3"
  param {
    lr_mult: 1
    decay_mult: 1
  }
  param {
    lr_mult: 2
    decay_mult: 0
  }
  convolution_param {
    num_output: 256
    pad: 1
    kernel_size: 3
    engine: CAFFE
  }
}
layer {
  name: "relu3_3"
  type: "ReLU"
  bottom: "conv3_3"
  top: "conv3_3"
}
layer {
  name: "pool3"
  type: "Pooling"
  bottom: "conv3_3"
  top: "pool3"
  pooling_param {
    pool: MAX
    kernel_size: 2
    stride: 2
  }
}
layer {
  name: "conv4_1"
  type: "Convolution"
  bottom: "pool3"
  top: "conv4_1"
  param {
    lr_mult: 1
    decay_mult: 1
  }
  param {
    lr_mult: 2
    decay_mult: 0
  }
  convolution_param {
    num_output: 512
    pad: 1
    kernel_size: 3
    engine: CAFFE
  }
}
layer {
  name: "relu4_1"
  type: "ReLU"
  bottom: "conv4_1"
  top: "conv4_1"
}
layer {
  name: "conv4_2"
  type: "Convolution"
  bottom: "conv4_1"
  top: "conv4_2"
  param {
    lr_mult: 1
    decay_mult: 1
  }
  param {
    lr_mult: 2
    decay_mult: 0
  }
  convolution_param {
    num_output: 512
    pad: 1
    kernel_size: 3
    engine: CAFFE
  }
}
layer {
  name: "relu4_2"
  type: "ReLU"
  bottom: "conv4_2"
  top: "conv4_2"
}
layer {
  name: "conv4_3"
  type: "Convolution"
  bottom: "conv4_2"
  top: "conv4_3"
  param {
    lr_mult: 1
    decay_mult: 1
  }
  param {
    lr_mult: 2
    decay_mult: 0
  }
  convolution_param {
    num_output: 512
    pad: 1
    kernel_size: 3
    engine: CAFFE
  }
}
layer {
  name: "relu4_3"
  type: "ReLU"
  bottom: "conv4_3"
  top: "conv4_3"
}
layer {
  name: "pool4"
  type: "Pooling"
  bottom: "conv4_3"
  top: "pool4"
  pooling_param {
    pool: MAX
    kernel_size: 3
    stride: 1
    pad: 1
  }
}
layer {
  name: "conv5_1"
  type: "Convolution"
  bottom: "pool4"
  top: "conv5_1"
  param {
    lr_mult: 1
    decay_mult: 1
  }
  param {
    lr_mult: 2
    decay_mult: 0
  }
  convolution_param {
    num_output: 512
    pad: 2
    kernel_size: 3
    engine: CAFFE
    filter_stride: 2
  }
}
layer {
  name: "relu5_1"
  type: "ReLU"
  bottom: "conv5_1"
  top: "conv5_1"
}
layer {
  name: "conv5_2"
  type: "Convolution"
  bottom: "conv5_1"
  top: "conv5_2"
  param {
    lr_mult: 1
    decay_mult: 1
  }
  param {
    lr_mult: 2
    decay_mult: 0
  }
  convolution_param {
    num_output: 512
    pad: 2
    kernel_size: 3
    engine: CAFFE
    filter_stride: 2
  }
}
layer {
  name: "relu5_2"
  type: "ReLU"
  bottom: "conv5_2"
  top: "conv5_2"
}
layer {
  name: "conv5_3"
  type: "Convolution"
  bottom: "conv5_2"
  top: "conv5_3"
  param {
    lr_mult: 1
    decay_mult: 1
  }
  param {
    lr_mult: 2
    decay_mult: 0
  }
  convolution_param {
    num_output: 512
    pad: 2
    kernel_size: 3
    engine: CAFFE
    filter_stride: 2
  }
}
layer {
  name: "relu5_3"
  type: "ReLU"
  bottom: "conv5_3"
  top: "conv5_3"
}
layer {
  name: "pool5"
  type: "Pooling"
  bottom: "conv5_3"
  top: "pool5"
  pooling_param {
    pool: MAX
    kernel_size: 3
    stride: 1
    pad: 1
  }
}
layer {
  name: "fc6"
  type: "Convolution"
  bottom: "pool5"
  top: "fc6"
  param {
    lr_mult: 1
    decay_mult: 1
  }
  param {
    lr_mult: 2
    decay_mult: 0
  }
  convolution_param {
    num_output: 1024
    pad: 12
    kernel_size: 3
    engine: CAFFE
    filter_stride: 12
  }
}
layer {
  name: "relu6"
  type: "ReLU"
  bottom: "fc6"
  top: "fc6"
}
layer {
  name: "drop6"
  type: "Dropout"
  bottom: "fc6"
  top: "fc6"
  dropout_param {
    dropout_ratio: 0.5
  }
}
layer {
  name: "fc7"
  type: "Convolution"
  bottom: "fc6"
  top: "fc7"
  param {
    lr_mult: 1
    decay_mult: 1
  }
  param {
    lr_mult: 2
    decay_mult: 0
  }
  convolution_param {
    num_output: 1024
    kernel_size: 1
    engine: CAFFE
  }
}
layer {
  name: "relu7"
  type: "ReLU"
  bottom: "fc7"
  top: "fc7"
}
layer {
  name: "drop7"
  type: "Dropout"
  bottom: "fc7"
  top: "fc7"
  dropout_param {
    dropout_ratio: 0.5
  }
}
layer {
  name: "fc7_norm"
  type: "Normalize"
  bottom: "fc7"
  top: "fc7_norm"
  norm_param {
    across_spatial: false
    scale_filler {
      type: "constant"
      value: 10
    }
    channel_shared: false
    fix_scale: false
  }
}
layer {
  name: "pool6_1x1"
  type: "Pooling"
  bottom: "fc7"
  top: "pool6_1x1"
  pooling_param {
    pool: AVE
    bin_size: 1
  }
}
layer {
  name: "pool6_1x1_norm"
  type: "Normalize"
  bottom: "pool6_1x1"
  top: "pool6_1x1_norm"
  norm_param {
    across_spatial: false
    scale_filler {
      type: "constant"
      value: 10
    }
    channel_shared: false
    fix_scale: false
  }
}
layer {
  name: "pool6_1x1_norm_drop"
  type: "Dropout"
  bottom: "pool6_1x1_norm"
  top: "pool6_1x1_norm"
  dropout_param {
    dropout_ratio: 0.3
  }
}
layer {
  name: "fc7_norm_score21"
  type: "Convolution"
  bottom: "fc7_norm"
  top: "fc7_norm_score21"
  param {
    lr_mult: 10
    decay_mult: 1
  }
  param {
    lr_mult: 20
    decay_mult: 0
  }
  convolution_param {
    num_output: 6
    kernel_size: 1
    weight_filler {
      type: "xavier"
    }
    bias_filler {
      type: "constant"
      value: 0
    }
    engine: CAFFE
  }
}
layer {
  name: "pool6_1x1_norm_score21"
  type: "Convolution"
  bottom: "pool6_1x1_norm"
  top: "pool6_1x1_norm_score21"
  param {
    lr_mult: 10
    decay_mult: 1
  }
  param {
    lr_mult: 20
    decay_mult: 0
  }
  convolution_param {
    num_output: 6
    kernel_size: 1
    weight_filler {
      type: "xavier"
    }
    bias_filler {
      type: "constant"
      value: 0
    }
    engine: CAFFE
  }
}
layer {
  name: "pool6_1x1_norm_upscore21"
  type: "UnPooling"
  bottom: "pool6_1x1_norm_score21"
  bottom: "fc7_norm_score21"
  top: "pool6_1x1_norm_upscore21"
  unpooling_param {
    unpool: REP
    out_kernel_size: 0
    out_stride: 0
  }
}
layer {
  name: "score21"
  type: "Eltwise"
  bottom: "pool6_1x1_norm_upscore21"
  bottom: "fc7_norm_score21"
  top: "score21"
  eltwise_param {
    operation: SUM
  }
}
layer {
  name: "upscore21"
  type: "Deconvolution"
  bottom: "score21"
  top: "upscore21"
  param {
    lr_mult: 1
    decay_mult: 1
  }
  param {
    lr_mult: 2
    decay_mult: 0
  }
  convolution_param {
    num_output: 6
    pad: 4
    kernel_size: 16
    group: 6
    stride: 8
    weight_filler {
      type: "bilinear_upsampling"
    }
  }
}
layer {
  name: "score"
  type: "Crop"
  bottom: "upscore21"
  bottom: "data"
  top: "score"
}
layer {
  name: "loss"
  type: "SoftmaxWithLoss"
  bottom: "score"
  bottom: "label"
  top: "loss"
  include {
    phase: TRAIN
  }
  loss_param {
    ignore_label: 255
    normalize: false
  }
}
I0318 17:17:17.194802 25527 layer_factory.hpp:74] Creating layer loaddata
I0318 17:17:17.194824 25527 net.cpp:91] Creating Layer loaddata
I0318 17:17:17.194835 25527 net.cpp:369] loaddata -> data
I0318 17:17:17.194886 25527 net.cpp:369] loaddata -> label
I0318 17:17:17.194901 25527 net.cpp:121] Setting up loaddata
I0318 17:17:17.194910 25527 hdf5_data_layer.cpp:80] Loading list of HDF5 filenames from: /home/valada/datasets/OFFROAD_OWN_MEAN_RSC/aug_deformed_v46.txt
I0318 17:17:17.195650 25527 hdf5_data_layer.cpp:94] Number of HDF5 files: 60
I0318 17:17:33.084933 25527 net.cpp:128] Top shape: 1 3 300 300 (270000)
I0318 17:17:33.084987 25527 net.cpp:128] Top shape: 1 1 300 300 (90000)
I0318 17:17:33.085000 25527 layer_factory.hpp:74] Creating layer data_loaddata_0_split
I0318 17:17:33.085041 25527 net.cpp:91] Creating Layer data_loaddata_0_split
I0318 17:17:33.085052 25527 net.cpp:411] data_loaddata_0_split <- data
I0318 17:17:33.085064 25527 net.cpp:369] data_loaddata_0_split -> data_loaddata_0_split_0
I0318 17:17:33.085078 25527 net.cpp:369] data_loaddata_0_split -> data_loaddata_0_split_1
I0318 17:17:33.085088 25527 net.cpp:121] Setting up data_loaddata_0_split
I0318 17:17:33.085100 25527 net.cpp:128] Top shape: 1 3 300 300 (270000)
I0318 17:17:33.085108 25527 net.cpp:128] Top shape: 1 3 300 300 (270000)
I0318 17:17:33.085114 25527 layer_factory.hpp:74] Creating layer conv1_1
I0318 17:17:33.085136 25527 net.cpp:91] Creating Layer conv1_1
I0318 17:17:33.085144 25527 net.cpp:411] conv1_1 <- data_loaddata_0_split_0
I0318 17:17:33.085150 25527 net.cpp:369] conv1_1 -> conv1_1
I0318 17:17:33.085160 25527 net.cpp:121] Setting up conv1_1
I0318 17:17:33.085255 25527 net.cpp:128] Top shape: 1 64 300 300 (5760000)
I0318 17:17:33.085273 25527 layer_factory.hpp:74] Creating layer relu1_1
I0318 17:17:33.085291 25527 net.cpp:91] Creating Layer relu1_1
I0318 17:17:33.085297 25527 net.cpp:411] relu1_1 <- conv1_1
I0318 17:17:33.085304 25527 net.cpp:358] relu1_1 -> conv1_1 (in-place)
I0318 17:17:33.085311 25527 net.cpp:121] Setting up relu1_1
I0318 17:17:33.085320 25527 net.cpp:128] Top shape: 1 64 300 300 (5760000)
I0318 17:17:33.085326 25527 layer_factory.hpp:74] Creating layer conv1_2
I0318 17:17:33.085335 25527 net.cpp:91] Creating Layer conv1_2
I0318 17:17:33.085340 25527 net.cpp:411] conv1_2 <- conv1_1
I0318 17:17:33.085347 25527 net.cpp:369] conv1_2 -> conv1_2
I0318 17:17:33.085391 25527 net.cpp:121] Setting up conv1_2
I0318 17:17:33.085687 25527 net.cpp:128] Top shape: 1 64 300 300 (5760000)
I0318 17:17:33.085701 25527 layer_factory.hpp:74] Creating layer relu1_2
I0318 17:17:33.085708 25527 net.cpp:91] Creating Layer relu1_2
I0318 17:17:33.085714 25527 net.cpp:411] relu1_2 <- conv1_2
I0318 17:17:33.085721 25527 net.cpp:358] relu1_2 -> conv1_2 (in-place)
I0318 17:17:33.085727 25527 net.cpp:121] Setting up relu1_2
I0318 17:17:33.085734 25527 net.cpp:128] Top shape: 1 64 300 300 (5760000)
I0318 17:17:33.085738 25527 layer_factory.hpp:74] Creating layer pool1
I0318 17:17:33.085753 25527 net.cpp:91] Creating Layer pool1
I0318 17:17:33.085758 25527 net.cpp:411] pool1 <- conv1_2
I0318 17:17:33.085764 25527 net.cpp:369] pool1 -> pool1
I0318 17:17:33.085772 25527 net.cpp:121] Setting up pool1
I0318 17:17:33.085796 25527 net.cpp:128] Top shape: 1 64 150 150 (1440000)
I0318 17:17:33.085803 25527 layer_factory.hpp:74] Creating layer conv2_1
I0318 17:17:33.085811 25527 net.cpp:91] Creating Layer conv2_1
I0318 17:17:33.085816 25527 net.cpp:411] conv2_1 <- pool1
I0318 17:17:33.085822 25527 net.cpp:369] conv2_1 -> conv2_1
I0318 17:17:33.085829 25527 net.cpp:121] Setting up conv2_1
I0318 17:17:33.086015 25527 net.cpp:128] Top shape: 1 128 150 150 (2880000)
I0318 17:17:33.086029 25527 layer_factory.hpp:74] Creating layer relu2_1
I0318 17:17:33.086037 25527 net.cpp:91] Creating Layer relu2_1
I0318 17:17:33.086042 25527 net.cpp:411] relu2_1 <- conv2_1
I0318 17:17:33.086048 25527 net.cpp:358] relu2_1 -> conv2_1 (in-place)
I0318 17:17:33.086055 25527 net.cpp:121] Setting up relu2_1
I0318 17:17:33.086061 25527 net.cpp:128] Top shape: 1 128 150 150 (2880000)
I0318 17:17:33.086067 25527 layer_factory.hpp:74] Creating layer conv2_2
I0318 17:17:33.086081 25527 net.cpp:91] Creating Layer conv2_2
I0318 17:17:33.086087 25527 net.cpp:411] conv2_2 <- conv2_1
I0318 17:17:33.086093 25527 net.cpp:369] conv2_2 -> conv2_2
I0318 17:17:33.086102 25527 net.cpp:121] Setting up conv2_2
I0318 17:17:33.086477 25527 net.cpp:128] Top shape: 1 128 150 150 (2880000)
I0318 17:17:33.086488 25527 layer_factory.hpp:74] Creating layer relu2_2
I0318 17:17:33.086495 25527 net.cpp:91] Creating Layer relu2_2
I0318 17:17:33.086500 25527 net.cpp:411] relu2_2 <- conv2_2
I0318 17:17:33.086508 25527 net.cpp:358] relu2_2 -> conv2_2 (in-place)
I0318 17:17:33.086515 25527 net.cpp:121] Setting up relu2_2
I0318 17:17:33.086520 25527 net.cpp:128] Top shape: 1 128 150 150 (2880000)
I0318 17:17:33.086524 25527 layer_factory.hpp:74] Creating layer pool2
I0318 17:17:33.086530 25527 net.cpp:91] Creating Layer pool2
I0318 17:17:33.086534 25527 net.cpp:411] pool2 <- conv2_2
I0318 17:17:33.086539 25527 net.cpp:369] pool2 -> pool2
I0318 17:17:33.086545 25527 net.cpp:121] Setting up pool2
I0318 17:17:33.086554 25527 net.cpp:128] Top shape: 1 128 75 75 (720000)
I0318 17:17:33.086560 25527 layer_factory.hpp:74] Creating layer conv3_1
I0318 17:17:33.086565 25527 net.cpp:91] Creating Layer conv3_1
I0318 17:17:33.086570 25527 net.cpp:411] conv3_1 <- pool2
I0318 17:17:33.086576 25527 net.cpp:369] conv3_1 -> conv3_1
I0318 17:17:33.086585 25527 net.cpp:121] Setting up conv3_1
I0318 17:17:33.087221 25527 net.cpp:128] Top shape: 1 256 75 75 (1440000)
I0318 17:17:33.087234 25527 layer_factory.hpp:74] Creating layer relu3_1
I0318 17:17:33.087247 25527 net.cpp:91] Creating Layer relu3_1
I0318 17:17:33.087254 25527 net.cpp:411] relu3_1 <- conv3_1
I0318 17:17:33.087260 25527 net.cpp:358] relu3_1 -> conv3_1 (in-place)
I0318 17:17:33.087266 25527 net.cpp:121] Setting up relu3_1
I0318 17:17:33.087273 25527 net.cpp:128] Top shape: 1 256 75 75 (1440000)
I0318 17:17:33.087280 25527 layer_factory.hpp:74] Creating layer conv3_2
I0318 17:17:33.087285 25527 net.cpp:91] Creating Layer conv3_2
I0318 17:17:33.087291 25527 net.cpp:411] conv3_2 <- conv3_1
I0318 17:17:33.087296 25527 net.cpp:369] conv3_2 -> conv3_2
I0318 17:17:33.087304 25527 net.cpp:121] Setting up conv3_2
I0318 17:17:33.088579 25527 net.cpp:128] Top shape: 1 256 75 75 (1440000)
I0318 17:17:33.088592 25527 layer_factory.hpp:74] Creating layer relu3_2
I0318 17:17:33.088608 25527 net.cpp:91] Creating Layer relu3_2
I0318 17:17:33.088613 25527 net.cpp:411] relu3_2 <- conv3_2
I0318 17:17:33.088618 25527 net.cpp:358] relu3_2 -> conv3_2 (in-place)
I0318 17:17:33.088624 25527 net.cpp:121] Setting up relu3_2
I0318 17:17:33.088629 25527 net.cpp:128] Top shape: 1 256 75 75 (1440000)
I0318 17:17:33.088634 25527 layer_factory.hpp:74] Creating layer conv3_3
I0318 17:17:33.088649 25527 net.cpp:91] Creating Layer conv3_3
I0318 17:17:33.088654 25527 net.cpp:411] conv3_3 <- conv3_2
I0318 17:17:33.088661 25527 net.cpp:369] conv3_3 -> conv3_3
I0318 17:17:33.088668 25527 net.cpp:121] Setting up conv3_3
I0318 17:17:33.089946 25527 net.cpp:128] Top shape: 1 256 75 75 (1440000)
I0318 17:17:33.089957 25527 layer_factory.hpp:74] Creating layer relu3_3
I0318 17:17:33.089977 25527 net.cpp:91] Creating Layer relu3_3
I0318 17:17:33.089980 25527 net.cpp:411] relu3_3 <- conv3_3
I0318 17:17:33.089987 25527 net.cpp:358] relu3_3 -> conv3_3 (in-place)
I0318 17:17:33.089994 25527 net.cpp:121] Setting up relu3_3
I0318 17:17:33.089999 25527 net.cpp:128] Top shape: 1 256 75 75 (1440000)
I0318 17:17:33.090006 25527 layer_factory.hpp:74] Creating layer pool3
I0318 17:17:33.090013 25527 net.cpp:91] Creating Layer pool3
I0318 17:17:33.090018 25527 net.cpp:411] pool3 <- conv3_3
I0318 17:17:33.090023 25527 net.cpp:369] pool3 -> pool3
I0318 17:17:33.090030 25527 net.cpp:121] Setting up pool3
I0318 17:17:33.090039 25527 net.cpp:128] Top shape: 1 256 38 38 (369664)
I0318 17:17:33.090045 25527 layer_factory.hpp:74] Creating layer conv4_1
I0318 17:17:33.090051 25527 net.cpp:91] Creating Layer conv4_1
I0318 17:17:33.090057 25527 net.cpp:411] conv4_1 <- pool3
I0318 17:17:33.090065 25527 net.cpp:369] conv4_1 -> conv4_1
I0318 17:17:33.090073 25527 net.cpp:121] Setting up conv4_1
I0318 17:17:33.092370 25527 net.cpp:128] Top shape: 1 512 38 38 (739328)
I0318 17:17:33.092381 25527 layer_factory.hpp:74] Creating layer relu4_1
I0318 17:17:33.092402 25527 net.cpp:91] Creating Layer relu4_1
I0318 17:17:33.092407 25527 net.cpp:411] relu4_1 <- conv4_1
I0318 17:17:33.092413 25527 net.cpp:358] relu4_1 -> conv4_1 (in-place)
I0318 17:17:33.092420 25527 net.cpp:121] Setting up relu4_1
I0318 17:17:33.092427 25527 net.cpp:128] Top shape: 1 512 38 38 (739328)
I0318 17:17:33.092432 25527 layer_factory.hpp:74] Creating layer conv4_2
I0318 17:17:33.092442 25527 net.cpp:91] Creating Layer conv4_2
I0318 17:17:33.092447 25527 net.cpp:411] conv4_2 <- conv4_1
I0318 17:17:33.092453 25527 net.cpp:369] conv4_2 -> conv4_2
I0318 17:17:33.092459 25527 net.cpp:121] Setting up conv4_2
I0318 17:17:33.097065 25527 net.cpp:128] Top shape: 1 512 38 38 (739328)
I0318 17:17:33.097082 25527 layer_factory.hpp:74] Creating layer relu4_2
I0318 17:17:33.097090 25527 net.cpp:91] Creating Layer relu4_2
I0318 17:17:33.097095 25527 net.cpp:411] relu4_2 <- conv4_2
I0318 17:17:33.097100 25527 net.cpp:358] relu4_2 -> conv4_2 (in-place)
I0318 17:17:33.097106 25527 net.cpp:121] Setting up relu4_2
I0318 17:17:33.097111 25527 net.cpp:128] Top shape: 1 512 38 38 (739328)
I0318 17:17:33.097115 25527 layer_factory.hpp:74] Creating layer conv4_3
I0318 17:17:33.097128 25527 net.cpp:91] Creating Layer conv4_3
I0318 17:17:33.097134 25527 net.cpp:411] conv4_3 <- conv4_2
I0318 17:17:33.097141 25527 net.cpp:369] conv4_3 -> conv4_3
I0318 17:17:33.097152 25527 net.cpp:121] Setting up conv4_3
I0318 17:17:33.102943 25527 net.cpp:128] Top shape: 1 512 38 38 (739328)
I0318 17:17:33.102970 25527 layer_factory.hpp:74] Creating layer relu4_3
I0318 17:17:33.102977 25527 net.cpp:91] Creating Layer relu4_3
I0318 17:17:33.102980 25527 net.cpp:411] relu4_3 <- conv4_3
I0318 17:17:33.102987 25527 net.cpp:358] relu4_3 -> conv4_3 (in-place)
I0318 17:17:33.102991 25527 net.cpp:121] Setting up relu4_3
I0318 17:17:33.102998 25527 net.cpp:128] Top shape: 1 512 38 38 (739328)
I0318 17:17:33.103001 25527 layer_factory.hpp:74] Creating layer pool4
I0318 17:17:33.103013 25527 net.cpp:91] Creating Layer pool4
I0318 17:17:33.103018 25527 net.cpp:411] pool4 <- conv4_3
I0318 17:17:33.103052 25527 net.cpp:369] pool4 -> pool4
I0318 17:17:33.103061 25527 net.cpp:121] Setting up pool4
I0318 17:17:33.103070 25527 net.cpp:128] Top shape: 1 512 38 38 (739328)
I0318 17:17:33.103076 25527 layer_factory.hpp:74] Creating layer conv5_1
I0318 17:17:33.103083 25527 net.cpp:91] Creating Layer conv5_1
I0318 17:17:33.103088 25527 net.cpp:411] conv5_1 <- pool4
I0318 17:17:33.103096 25527 net.cpp:369] conv5_1 -> conv5_1
I0318 17:17:33.103103 25527 net.cpp:121] Setting up conv5_1
I0318 17:17:33.108804 25527 net.cpp:128] Top shape: 1 512 38 38 (739328)
I0318 17:17:33.108834 25527 layer_factory.hpp:74] Creating layer relu5_1
I0318 17:17:33.108844 25527 net.cpp:91] Creating Layer relu5_1
I0318 17:17:33.108847 25527 net.cpp:411] relu5_1 <- conv5_1
I0318 17:17:33.108853 25527 net.cpp:358] relu5_1 -> conv5_1 (in-place)
I0318 17:17:33.108860 25527 net.cpp:121] Setting up relu5_1
I0318 17:17:33.108867 25527 net.cpp:128] Top shape: 1 512 38 38 (739328)
I0318 17:17:33.108871 25527 layer_factory.hpp:74] Creating layer conv5_2
I0318 17:17:33.108881 25527 net.cpp:91] Creating Layer conv5_2
I0318 17:17:33.108887 25527 net.cpp:411] conv5_2 <- conv5_1
I0318 17:17:33.108894 25527 net.cpp:369] conv5_2 -> conv5_2
I0318 17:17:33.108902 25527 net.cpp:121] Setting up conv5_2
I0318 17:17:33.114058 25527 net.cpp:128] Top shape: 1 512 38 38 (739328)
I0318 17:17:33.114074 25527 layer_factory.hpp:74] Creating layer relu5_2
I0318 17:17:33.114081 25527 net.cpp:91] Creating Layer relu5_2
I0318 17:17:33.114086 25527 net.cpp:411] relu5_2 <- conv5_2
I0318 17:17:33.114106 25527 net.cpp:358] relu5_2 -> conv5_2 (in-place)
I0318 17:17:33.114114 25527 net.cpp:121] Setting up relu5_2
I0318 17:17:33.114119 25527 net.cpp:128] Top shape: 1 512 38 38 (739328)
I0318 17:17:33.114122 25527 layer_factory.hpp:74] Creating layer conv5_3
I0318 17:17:33.114130 25527 net.cpp:91] Creating Layer conv5_3
I0318 17:17:33.114135 25527 net.cpp:411] conv5_3 <- conv5_2
I0318 17:17:33.114142 25527 net.cpp:369] conv5_3 -> conv5_3
I0318 17:17:33.114151 25527 net.cpp:121] Setting up conv5_3
I0318 17:17:33.118626 25527 net.cpp:128] Top shape: 1 512 38 38 (739328)
I0318 17:17:33.118640 25527 layer_factory.hpp:74] Creating layer relu5_3
I0318 17:17:33.118660 25527 net.cpp:91] Creating Layer relu5_3
I0318 17:17:33.118664 25527 net.cpp:411] relu5_3 <- conv5_3
I0318 17:17:33.118674 25527 net.cpp:358] relu5_3 -> conv5_3 (in-place)
I0318 17:17:33.118680 25527 net.cpp:121] Setting up relu5_3
I0318 17:17:33.118685 25527 net.cpp:128] Top shape: 1 512 38 38 (739328)
I0318 17:17:33.118691 25527 layer_factory.hpp:74] Creating layer pool5
I0318 17:17:33.118705 25527 net.cpp:91] Creating Layer pool5
I0318 17:17:33.118711 25527 net.cpp:411] pool5 <- conv5_3
I0318 17:17:33.118717 25527 net.cpp:369] pool5 -> pool5
I0318 17:17:33.118726 25527 net.cpp:121] Setting up pool5
I0318 17:17:33.118736 25527 net.cpp:128] Top shape: 1 512 38 38 (739328)
I0318 17:17:33.118742 25527 layer_factory.hpp:74] Creating layer fc6
I0318 17:17:33.118749 25527 net.cpp:91] Creating Layer fc6
I0318 17:17:33.118754 25527 net.cpp:411] fc6 <- pool5
I0318 17:17:33.118762 25527 net.cpp:369] fc6 -> fc6
I0318 17:17:33.118772 25527 net.cpp:121] Setting up fc6
I0318 17:17:33.129662 25527 net.cpp:128] Top shape: 1 1024 38 38 (1478656)
I0318 17:17:33.129703 25527 layer_factory.hpp:74] Creating layer relu6
I0318 17:17:33.129711 25527 net.cpp:91] Creating Layer relu6
I0318 17:17:33.129715 25527 net.cpp:411] relu6 <- fc6
I0318 17:17:33.129725 25527 net.cpp:358] relu6 -> fc6 (in-place)
I0318 17:17:33.129734 25527 net.cpp:121] Setting up relu6
I0318 17:17:33.129739 25527 net.cpp:128] Top shape: 1 1024 38 38 (1478656)
I0318 17:17:33.129745 25527 layer_factory.hpp:74] Creating layer drop6
I0318 17:17:33.129760 25527 net.cpp:91] Creating Layer drop6
I0318 17:17:33.129765 25527 net.cpp:411] drop6 <- fc6
I0318 17:17:33.129771 25527 net.cpp:358] drop6 -> fc6 (in-place)
I0318 17:17:33.129782 25527 net.cpp:121] Setting up drop6
I0318 17:17:33.129796 25527 net.cpp:128] Top shape: 1 1024 38 38 (1478656)
I0318 17:17:33.129802 25527 layer_factory.hpp:74] Creating layer fc7
I0318 17:17:33.129845 25527 net.cpp:91] Creating Layer fc7
I0318 17:17:33.129851 25527 net.cpp:411] fc7 <- fc6
I0318 17:17:33.129860 25527 net.cpp:369] fc7 -> fc7
I0318 17:17:33.129868 25527 net.cpp:121] Setting up fc7
I0318 17:17:33.132403 25527 net.cpp:128] Top shape: 1 1024 38 38 (1478656)
I0318 17:17:33.132414 25527 layer_factory.hpp:74] Creating layer relu7
I0318 17:17:33.132422 25527 net.cpp:91] Creating Layer relu7
I0318 17:17:33.132438 25527 net.cpp:411] relu7 <- fc7
I0318 17:17:33.132443 25527 net.cpp:358] relu7 -> fc7 (in-place)
I0318 17:17:33.132450 25527 net.cpp:121] Setting up relu7
I0318 17:17:33.132455 25527 net.cpp:128] Top shape: 1 1024 38 38 (1478656)
I0318 17:17:33.132459 25527 layer_factory.hpp:74] Creating layer drop7
I0318 17:17:33.132467 25527 net.cpp:91] Creating Layer drop7
I0318 17:17:33.132472 25527 net.cpp:411] drop7 <- fc7
I0318 17:17:33.132482 25527 net.cpp:358] drop7 -> fc7 (in-place)
I0318 17:17:33.132488 25527 net.cpp:121] Setting up drop7
I0318 17:17:33.132494 25527 net.cpp:128] Top shape: 1 1024 38 38 (1478656)
I0318 17:17:33.132500 25527 layer_factory.hpp:74] Creating layer fc7_drop7_0_split
I0318 17:17:33.132508 25527 net.cpp:91] Creating Layer fc7_drop7_0_split
I0318 17:17:33.132513 25527 net.cpp:411] fc7_drop7_0_split <- fc7
I0318 17:17:33.132519 25527 net.cpp:369] fc7_drop7_0_split -> fc7_drop7_0_split_0
I0318 17:17:33.132526 25527 net.cpp:369] fc7_drop7_0_split -> fc7_drop7_0_split_1
I0318 17:17:33.132534 25527 net.cpp:121] Setting up fc7_drop7_0_split
I0318 17:17:33.132542 25527 net.cpp:128] Top shape: 1 1024 38 38 (1478656)
I0318 17:17:33.132550 25527 net.cpp:128] Top shape: 1 1024 38 38 (1478656)
I0318 17:17:33.132552 25527 layer_factory.hpp:74] Creating layer fc7_norm
I0318 17:17:33.132566 25527 net.cpp:91] Creating Layer fc7_norm
I0318 17:17:33.132572 25527 net.cpp:411] fc7_norm <- fc7_drop7_0_split_0
I0318 17:17:33.132581 25527 net.cpp:369] fc7_norm -> fc7_norm
I0318 17:17:33.132592 25527 net.cpp:121] Setting up fc7_norm
I0318 17:17:33.132621 25527 net.cpp:128] Top shape: 1 1024 38 38 (1478656)
I0318 17:17:33.132629 25527 layer_factory.hpp:74] Creating layer pool6_1x1
I0318 17:17:33.132640 25527 net.cpp:91] Creating Layer pool6_1x1
I0318 17:17:33.132645 25527 net.cpp:411] pool6_1x1 <- fc7_drop7_0_split_1
I0318 17:17:33.132652 25527 net.cpp:369] pool6_1x1 -> pool6_1x1
I0318 17:17:33.132659 25527 net.cpp:121] Setting up pool6_1x1
I0318 17:17:33.132675 25527 net.cpp:128] Top shape: 1 1024 1 1 (1024)
I0318 17:17:33.132681 25527 layer_factory.hpp:74] Creating layer pool6_1x1_norm
I0318 17:17:33.132693 25527 net.cpp:91] Creating Layer pool6_1x1_norm
I0318 17:17:33.132699 25527 net.cpp:411] pool6_1x1_norm <- pool6_1x1
I0318 17:17:33.132704 25527 net.cpp:369] pool6_1x1_norm -> pool6_1x1_norm
I0318 17:17:33.132711 25527 net.cpp:121] Setting up pool6_1x1_norm
I0318 17:17:33.132745 25527 net.cpp:128] Top shape: 1 1024 1 1 (1024)
I0318 17:17:33.132751 25527 layer_factory.hpp:74] Creating layer pool6_1x1_norm_drop
I0318 17:17:33.132760 25527 net.cpp:91] Creating Layer pool6_1x1_norm_drop
I0318 17:17:33.132763 25527 net.cpp:411] pool6_1x1_norm_drop <- pool6_1x1_norm
I0318 17:17:33.132771 25527 net.cpp:358] pool6_1x1_norm_drop -> pool6_1x1_norm (in-place)
I0318 17:17:33.132777 25527 net.cpp:121] Setting up pool6_1x1_norm_drop
I0318 17:17:33.132784 25527 net.cpp:128] Top shape: 1 1024 1 1 (1024)
I0318 17:17:33.132788 25527 layer_factory.hpp:74] Creating layer fc7_norm_score21
I0318 17:17:33.132796 25527 net.cpp:91] Creating Layer fc7_norm_score21
I0318 17:17:33.132800 25527 net.cpp:411] fc7_norm_score21 <- fc7_norm
I0318 17:17:33.132809 25527 net.cpp:369] fc7_norm_score21 -> fc7_norm_score21
I0318 17:17:33.132818 25527 net.cpp:121] Setting up fc7_norm_score21
I0318 17:17:33.133307 25527 net.cpp:128] Top shape: 1 6 38 38 (8664)
I0318 17:17:33.133327 25527 layer_factory.hpp:74] Creating layer fc7_norm_score21_fc7_norm_score21_0_split
I0318 17:17:33.133335 25527 net.cpp:91] Creating Layer fc7_norm_score21_fc7_norm_score21_0_split
I0318 17:17:33.133339 25527 net.cpp:411] fc7_norm_score21_fc7_norm_score21_0_split <- fc7_norm_score21
I0318 17:17:33.133359 25527 net.cpp:369] fc7_norm_score21_fc7_norm_score21_0_split -> fc7_norm_score21_fc7_norm_score21_0_split_0
I0318 17:17:33.133369 25527 net.cpp:369] fc7_norm_score21_fc7_norm_score21_0_split -> fc7_norm_score21_fc7_norm_score21_0_split_1
I0318 17:17:33.133376 25527 net.cpp:121] Setting up fc7_norm_score21_fc7_norm_score21_0_split
I0318 17:17:33.133384 25527 net.cpp:128] Top shape: 1 6 38 38 (8664)
I0318 17:17:33.133389 25527 net.cpp:128] Top shape: 1 6 38 38 (8664)
I0318 17:17:33.133394 25527 layer_factory.hpp:74] Creating layer pool6_1x1_norm_score21
I0318 17:17:33.133407 25527 net.cpp:91] Creating Layer pool6_1x1_norm_score21
I0318 17:17:33.133412 25527 net.cpp:411] pool6_1x1_norm_score21 <- pool6_1x1_norm
I0318 17:17:33.133421 25527 net.cpp:369] pool6_1x1_norm_score21 -> pool6_1x1_norm_score21
I0318 17:17:33.133432 25527 net.cpp:121] Setting up pool6_1x1_norm_score21
I0318 17:17:33.133502 25527 net.cpp:128] Top shape: 1 6 1 1 (6)
I0318 17:17:33.133512 25527 layer_factory.hpp:74] Creating layer pool6_1x1_norm_upscore21
I0318 17:17:33.133523 25527 net.cpp:91] Creating Layer pool6_1x1_norm_upscore21
I0318 17:17:33.133529 25527 net.cpp:411] pool6_1x1_norm_upscore21 <- pool6_1x1_norm_score21
I0318 17:17:33.133534 25527 net.cpp:411] pool6_1x1_norm_upscore21 <- fc7_norm_score21_fc7_norm_score21_0_split_0
I0318 17:17:33.133541 25527 net.cpp:369] pool6_1x1_norm_upscore21 -> pool6_1x1_norm_upscore21
I0318 17:17:33.133551 25527 net.cpp:121] Setting up pool6_1x1_norm_upscore21
I0318 17:17:33.133575 25527 net.cpp:128] Top shape: 1 6 38 38 (8664)
I0318 17:17:33.133581 25527 layer_factory.hpp:74] Creating layer score21
I0318 17:17:33.133592 25527 net.cpp:91] Creating Layer score21
I0318 17:17:33.133599 25527 net.cpp:411] score21 <- pool6_1x1_norm_upscore21
I0318 17:17:33.133604 25527 net.cpp:411] score21 <- fc7_norm_score21_fc7_norm_score21_0_split_1
I0318 17:17:33.133610 25527 net.cpp:369] score21 -> score21
I0318 17:17:33.133618 25527 net.cpp:121] Setting up score21
I0318 17:17:33.133630 25527 net.cpp:128] Top shape: 1 6 38 38 (8664)
I0318 17:17:33.133635 25527 layer_factory.hpp:74] Creating layer upscore21
I0318 17:17:33.133648 25527 net.cpp:91] Creating Layer upscore21
I0318 17:17:33.133654 25527 net.cpp:411] upscore21 <- score21
I0318 17:17:33.133661 25527 net.cpp:369] upscore21 -> upscore21
I0318 17:17:33.133668 25527 net.cpp:121] Setting up upscore21
I0318 17:17:33.133916 25527 net.cpp:128] Top shape: 1 6 304 304 (554496)
I0318 17:17:33.133927 25527 layer_factory.hpp:74] Creating layer score
I0318 17:17:33.133937 25527 net.cpp:91] Creating Layer score
I0318 17:17:33.133942 25527 net.cpp:411] score <- upscore21
I0318 17:17:33.133947 25527 net.cpp:411] score <- data_loaddata_0_split_1
I0318 17:17:33.133956 25527 net.cpp:369] score -> score
I0318 17:17:33.133965 25527 net.cpp:121] Setting up score
I0318 17:17:33.134047 25527 net.cpp:128] Top shape: 1 6 300 300 (540000)
I0318 17:17:33.134053 25527 layer_factory.hpp:74] Creating layer loss
I0318 17:17:33.134063 25527 net.cpp:91] Creating Layer loss
I0318 17:17:33.134069 25527 net.cpp:411] loss <- score
I0318 17:17:33.134074 25527 net.cpp:411] loss <- label
I0318 17:17:33.134083 25527 net.cpp:369] loss -> loss
I0318 17:17:33.134095 25527 net.cpp:121] Setting up loss
I0318 17:17:33.134109 25527 layer_factory.hpp:74] Creating layer loss
…
